…
  layer_dropout(0.5) %>%
  layer_dense(units = 128, activation = "relu") %>%
  layer_dropout(0.5)%>%
  layer_dense(units = 64, activation = "relu") %>%
  layer_dropout(0.5)%>%
  layer_dense(units = 5, activation = "softmax")
summary(model)
```

```         
Model: "sequential"
_____________________________________________________________________________________________
 Layer (type)                            Output Shape                          Param #       
=============================================================================================
 conv2d_4 (Conv2D)                       (None, 198, 198, 32)                  896           
 conv2d_3 (Conv2D)                       (None, 196, 196, 64)                  18496         
 max_pooling2d_3 (MaxPooling2D)          (None, 98, 98, 64)                    0             
 conv2d_2 (Conv2D)                       (None, 96, 96, 64)                    36928         
 max_pooling2d_2 (MaxPooling2D)          (None, 48, 48, 64)                    0             
 conv2d_1 (Conv2D)                       (None, 46, 46, 128)                   73856         
 max_pooling2d_1 (MaxPooling2D)          (None, 23, 23, 128)                   0             
 conv2d (Conv2D)                         (None, 21, 21, 128)                   147584        
 max_pooling2d (MaxPooling2D)            (None, 10, 10, 128)                   0             
 flatten (Flatten)                       (None, 12800)                         0             
 dense_3 (Dense)                         (None, 256)                           3277056       
 dropout_2 (Dropout)                     (None, 256)                           0             
 dense_2 (Dense)                         (None, 128)                           32896         
 dropout_1 (Dropout)                     (None, 128)                           0             
 dense_1 (Dense)                         (None, 64)                            8256          
 dropout (Dropout)                       (None, 64)                            0             
 dense (Dense)                           (None, 5)                             325           
=============================================================================================
Total params: 3596293 (13.72 MB)
Trainable params: 3596293 (13.72 MB)
Non-trainable params: 0 (0.00 Byte)
_____________________________________________________________________________________________
```

Per la parte della rete riguardante l'estrazione di informazioni dalle immagini d
…
